data.pth (torch, 7146 bytes, 6 tensors)

l1.weight f4 [8, 54]
00000000: ac00 ce3e 7794 fa3e c940 6cbe bcd1 ae3e
00000010: ff51 553e 84ac a83e 21b4 1ebd 9cf8 3f3e
00000020: e1ee 16bf 15cb 7e3d a289 1d3f 34e4 2abe
00000030: ae4f cbbe c4dd c3be 2a40 f63e 7850 5abe
00000040: 40cf 043f b065 983e fe10 76be 514f 173f
00000050: 0732 b33e 738e 123f 2a04 033f 8871 783e
00000060: 5d48 45bd 974c d03e 4450 bfbe 002b 6e3e
00000070: 4576 98be 8763 2a3d 23f4 6c3c 20a3 e7be
00000080: fa13 4f3e 690b 66bd 9832 e93e 31ee d3bd
00000090: 05d0 ccbe 584a cabe a7cc 023e 7490 6a3d
000000a0: 395f 773e 7928 febe 9eb9 2abe b21c a03e
000000b0: 825e 8dbe 5112 053f 3e95 043f adf7 b73e
000000c0: 9fef 6a3e 03af cdbe b8cc 2cbe e403 92be
000000d0: d8be 3c3d 9a1b 853e 5823 febd 1324 373f
000000e0: ac4d 013f 88ad 7c3e 9126 fb3e a102 19bf
000000f0: c017 bf3e 7cec c73e b8b9 f93e 148f b03e
00000100: fc3a 813e cf11 a0be 870d 163f ae18 c0be
00000110: 6bb9 0e3f de08 cebe d1f7 c63e 4e01 1fbf
00000120: 4312 8dbc 1725 0b3f d257 093e 10b0 1a3f
00000130: a0f4 183f b6a5 3c3e 5cea 953e b360 d33e
00000140: e3fb ddbd 7c2f 263f 9cb0 aabb d2ab 1f3f
00000150: 154f 98be 396c f3be 8491 e0bd de7b f13e
00000160: 1a42 573f 3a74 b5be 7ab7 b9bd 2598 023f
00000170: 37f4 ef3e 27c2 eb3e a084 05bf 374d 53be
00000180: 1d82 95be 1b32 023f 37d2 913e 3702 2f3f
00000190: 2a38 8dbe bfde 6cbd e440 ae3e 28da e0bd
000001a0: 1851 f7be a799 f7bd a1c8 ba3e 7a07 243f
000001b0: 7677 b2bd 58b7 52bd be4b 94bd 75a0 743d
000001c0: ee8b adbd 108b f5bd 74bb 2d3d 3963 ffbd
000001d0: d4b3 033e 5362 d7bd a32e 38bd 0917 d7bc
000001e0: f431 8a3b 9dde b53d a757 4a3d f4aa 703d
000001f0: 2518 9fbc 46cb 3c3d 01a2 04be 8505 e43a
00000200: 6f1a c6bd d452 223d 45c9 a0bd 9a19 803d
00000210: 2fe8 8d3d aba9 1c3d 3ded 09be 743b e6bc
00000220: 0571 ddbc 1a0c e7bd 00c8 f33c de73 b3bd
00000230: 6aa7 05be ed32 09be a99c 82bd 0bf7 7b3d
00000240: 7956 d53d b1c9 e43d 33cb 943d fbb0 04be
00000250: 4344 8f3d 2c7d b3bd f573 913d 550c c63d
00000260: c78f 813c 4675 9cbc 5c0e 5dbd 7058 98bc
00000270: be0c 3cbd 09b8 c3bd 36cd 42bd 90e4 17bc
00000280: 5860 01be 8dd7 d3bd a319 263f 6a1c 953e
00000290: 64c0 f03e 865a aabe dd1e 4b3e f520 8c3f
000002a0: f09d 823e 1901 073f c722 8f3e 484a d53e
000002b0: 8e5e f6be aaec a3be 2210 58be 254f c6be
000002c0: bd42 113c 491e f0bd 7839 b2be daec 6b3f
000002d0: c382 debe 6651 11bf ad81 893e 51f9 14bf
000002e0: 784f 0fbf 3bc2 70be 2a56 813e a1cb 40be
000002f0: 1222 adbe 6bc0 65be 24b8 513c 6fe9 bcbe
00000300: f73f 4b3f e28f 8ebe 6810 c43e bb1b fd3e
00000310: df67 23be 0a71 adbe 8754 b7bc 7cb1 ca3e
00000320: 0d3f f03e 469e 813e 595a 473f 3446 1cbf
00000330: 21f5 a3be 1bbd b53d 8900 c53e 1dce f6bd
00000340: 84d2 6d3f 54ee ce3e 5a7d d2bd 4196 1fbf
00000350: faec cfbd 3b91 ecbe 9101 b13e 0ce5 1b3f
00000360: 7501 1f3f d7d8 63be 5c03 493f df1e 49be
00000370: 50f9 b3be 0b2e 673f 3ce7 093f 6e5a fa3e
00000380: 9c85 143f f7cc f83e 9509 a7be 27d9 98be
00000390: 5ee5 303e 5493 a7bd aeee 0abe 2c0a b3be
000003a0: 5e2d a9be 4ac7 623f 4e87 05bd af19 28bf
000003b0: 48a9 073f fe16 28bf 0b1a 28bf dcb2 5bbf
000003c0: d719 063f de74 76be 2f65 c4bd af7f 17bf
000003d0: cba6 fabd 9ead 22bf 1e6e 373f bbd6 b1bc
000003e0: ccaf b43e f1de 353f 6cbe d0bd b049 b1be
000003f0: 6607 9bbd 3a96 1c3f 25e6 1b3f 5e95 fb3e
0.40234888 0.48941395 -0.23071589 0.3414439 0.2083206 0.3294412 -0.038746003 0.1874718
-0.5895825 0.062205393 0.61538136 -0.16688615 -0.39709228 -0.3825513 0.48095828 -0.21319759
0.5187874 0.2976508 -0.2402992 0.591054 0.34999105 0.5724861 0.5117823 0.24262059
-0.048164714 0.40683433 -0.37365925 0.2325859 -0.29777732 0.041598823 0.014462504 -0.45241642
0.20222464 -0.056163225 0.45546412 -0.10348166 -0.40002456 -0.39509845 0.12773381 0.057266667
0.24157418 -0.49640253 -0.1667237 0.31271893 -0.27611166 0.51981074 0.51790226 0.3593115
0.2294297 -0.40172586 -0.16874969 -0.28518593 0.04608044 0.2599762 -0.12409085 0.7153942
0.5050914 0.24675572 0.4905286 -0.59769636 0.37322807 0.3904761 0.48774505 0.3448416
0.25240314 -0.31263587 0.5861439 -0.3751883 0.55751675 -0.4024114 0.38860944 -0.62111366
-0.017220622 0.5435347 0.13412407 0.604249 0.5974827 0.18422589 0.29280365 0.41284713
-0.10839059 0.64916205 -0.0052090418 0.6237155 -0.29747835 -0.47543505 -0.10965255 0.47164816
0.8408524 -0.35440236 -0.090681985 0.51013404 0.4686601 0.46046564 -0.52155495 -0.20634924
-0.2920083 0.50857705 0.28480694 0.68362755 -0.27581912 -0.057829615 0.34033883 -0.1097911
-0.48304057 -0.12089854 0.36481193 0.6407391 -0.087141916 -0.05144438 -0.07241009 0.059723336
-0.08473955 -0.11989415 0.042415097 -0.12470097 0.12861568 -0.10516801 -0.04496635 -0.026256101
0.0042173807 0.08880351 0.049399998 0.058756784 -0.019420693 0.046092294 -0.12952425 0.0017396664
-0.096730106 0.039629772 -0.07850889 0.06254883 0.06929051 0.038247745 -0.13469405 -0.028104521
-0.027031431 -0.11281605 0.029758453 -0.08762334 -0.13052145 -0.13398333 -0.06377537 0.061514895
0.10416884 0.11171282 0.0726532 -0.12958138 0.06995442 -0.08764109 0.07102195 0.09670321
0.015815629 -0.01909889 -0.053968772 -0.018596858 -0.04591059 -0.09556586 -0.047558986 -0.009270802
-0.12634408 -0.103438474 0.6488287 0.2912324 0.47021782 -0.3327219 0.19835992 1.0947558
0.25511122 0.5273605 0.2795622 0.41658235 -0.48119015 -0.32016498 -0.21099904 -0.38732257
0.008866009 -0.117245264 -0.3480947 0.9215828 -0.43459138 -0.5676483 0.26856747 -0.58192927
-0.55980635 -0.23511593 0.2526105 -0.18827678 -0.33815056 -0.22436683 0.01280025 -0.36896846
0.7939448 -0.2784415 0.38293767 0.4943522 -0.15957592 -0.33875304 -0.022379173 0.39588535
0.46923104 0.25316066 0.77872235 -0.6104462 -0.32022956 0.0887396 0.3847697 -0.12051032
0.92899346 0.40416205 -0.10277815 -0.62338644 -0.101526216 -0.46204552 0.34571508 0.6089637
0.621116 -0.22250687 0.7852075 -0.19640683 -0.35151148 0.9030463 0.5386846 0.48897117
0.5801637 0.48593876 -0.32624498 -0.29853174 0.17274997 -0.081823975 -0.13567612 -0.34968698
-0.33042425 0.8858534 -0.03259974 -0.6566419 0.5299268 -0.65660083 -0.6566474 -0.8581979
0.5238318 -0.24068019 -0.09589612 -0.59179205 -0.122388445 -0.6354617 0.716524 -0.021708837
0.35290372 0.71043307 -0.1019257 -0.34626532 -0.075697705 0.6116673 0.6089805 0.49137396

l1.bias f4 [8]
00000000: a87e 843f 8795 2c3f 8313 27be 43fd 553f
00000010: 4c1a 283f a3fe 303f 5010 143f ccd9 653f
1.0351152 0.6741566 -0.16316037 0.8358957 0.65665126 0.69138545 0.5783739 0.89785457

l2.weight f4 [8, 8]
00000000: 0891 17be a728 513d b94f 1cbe a81c 3cbe
00000010: 8c05 17be 0dbf 803e c43b 69be 3fa7 2bbe
00000020: 2b9a 823f fb3f 2f3f 09b3 ef3d c064 ab3d
00000030: c6ea 16bf d928 cfbd ea2e 9fbd f987 96be
00000040: 243f 323e 8319 9f3e 7a2f 203e 3582 07be
00000050: 2724 e53e 2e34 65bf 96c5 813f f2dd b83f
00000060: 2ea7 2b3f 06d4 4d3f d610 83be a5ef 9b3f
00000070: 2687 ba3f 8bd2 e3be 2dc7 f13e dbde b93e
00000080: 4d4c 45be aacd 3d3f a46a 54be 198d 033f
00000090: 9f8e 213f 6f03 bd3f 9a9a 9d3f efd0 a0bf
000000a0: 18ac 503f 1705 983f 940c 0e3e cf0e b43d
000000b0: c013 21bf 8b15 eebe 6f67 183f a7dc a63f
000000c0: c7c3 623e 8fa6 bd3e 49a6 883e a8d1 7bbf
000000d0: 1826 b1bf a673 353f cd54 703f 3cc7 903f
000000e0: 8b2c a53f 0ea3 47be fc7c 483d d225 a83f
000000f0: 31f6 7e3f eff8 84bf a4bc 33bf 562c 973f
-0.14801419 0.05106416 -0.15264787 -0.18370306 -0.1474821 0.2514576 -0.22776705 -0.16763018
1.0203298 0.68457 0.1170407 0.08368826 -0.58951986 -0.10115213 -0.0777262 -0.29400614
0.17406899 0.3107415 0.15643111 -0.13233264 0.44754145 -0.89532745 1.0138423 1.4442732
0.6705197 0.8040165 -0.25598782 1.2182509 1.4572494 -0.4449657 0.47222272 0.36302838
-0.19267388 0.74141943 -0.20743805 0.5138717 0.6310825 1.4766673 1.2312806 -1.2563761
0.81512594 1.1876553 0.13871986 0.08791887 -0.6292076 -0.4650081 0.5953283 1.3036088
0.22144996 0.37041137 0.26689366 -0.98366785 -1.383975 0.7087959 0.93879396 1.1310802
1.2904218 -0.19495794 0.04894732 1.3136542 0.9959441 -1.0388469 -0.7020972 1.1810405

l2.bias f4 [8]
00000000: 98ae c0be ef2b 313f 82ff 1e3e 5452 f43e
00000010: dfed 313f 4df7 573c 27c6 463f 5a50 633f
-0.37633204 0.6920766 0.15527156 0.4771906 0.6950359 0.01318152 0.77646106 0.8879448

l3.weight f4 [54, 8]
00000000: dc89 11be 75ea 23bf 1f93 f2bf 9d58 64bc
00000010: 1290 543f 05d8 08bf f1eb 373f fc10 6fbf
00000020: 1828 56be 713e 0f3f acbd 3dbf 9952 7a3e
00000030: 5104 df3e 5169 e03e ceae e73e 86d5 a5bf
00000040: a8ad b9be 1780 e23e 142e c3be cf15 ce3e
00000050: 2a51 a03d 456d 2fbf 42d0 0cbf dd95 0a3f
00000060: 2900 003d aec1 4a3f d439 7d3d 4601 ef3d
00000070: bff9 2abf 37c2 0d3f 7db3 293f 9da0 953d
00000080: c110 073e 7155 f9bd 79aa 1d3f 0f43 723e
00000090: 915b 8abd b624 893e 83be 1c3f 450b c9bf
000000a0: ef64 813e 23c9 523a 2b3c debc 4a49 083f
000000b0: 03a7 1c3f e1f7 933e 5fa4 54bf 1834 56bf
000000c0: 5a32 3fbe 1d8c a6be 5a79 a93e 223f a73e
000000d0: 6fef 7bbf 6341 063f de70 7dbf 597d 0e3f
000000e0: e2a4 abbe f570 80be ceba 5ebf 5768 19bf
000000f0: 0bc5 e2be 3dc6 22bf 1a1b 05be 4f9b 06bf
00000100: 516e 713e 32fd 01bf fada a6be 74ce 60be
00000110: 7d19 19bf 8af3 a6be 5c72 96bd a243 45bf
00000120: 65b8 83b9 b0df d8be 2a92 52bf a916 13be
00000130: 924f 9fbe f322 5fbe f6b9 02bf 1f5c 0cbf
00000140: d016 ba3d e2e2 a5bd a56f 08bf 377a 3abf
00000150: 2abc 94be 9a24 2ebf e16c 86bd 02ed 0abf
00000160: 07c4 adbd 9a28 093c e951 5cbf c361 03bf
00000170: 4b4d abbe afb8 23bf a7e4 b0be 0fb1 19bf
00000180: e8b7 4dbc 8468 c2bd 7940 4abf 48b7 b4be
00000190: 9c18 1bbf 8349 f3be 2ec9 27bf 2462 b0be
000001a0: 1c89 52be a204 05bf 7515 adbe 7d97 bebe
000001b0: c7bc d4be be67 2bbf 90c0 fbbe 29d6 1fbf
000001c0: 6b53 c1bd d56b 94be b829 4dbf 99b8 05bf
000001d0: a53a bdbe 2d3e 19bf 4c41 ffbe 100b a4be
000001e0: 5f84 a2bd 5e17 27bf 51bf 45bf 879e 21bf
000001f0: ab14 adbe 2771 afbe 60d8 c9be f809 c1be
00000200: 7c45 a2bd 5379 6cbe 5f9c 2dbf 2737 05be
00000210: c336 f8be e854 24bf 87f5 22be 7e68 1ebf
00000220: 16d9 9bbe 0a2b 14bf 547e 33bf f37a 13bf
00000230: e7e2 d4bd 461b e0be e1e9 babe 58f9 e9be
00000240: 6c49 033e a44b b2be ca3a edbe a0ac 61be
00000250: 0b0a 0dbf eeb7 edbe 3470 2fbf cfa9 39bf
00000260: 5c70 533e c7f5 d8be 780b 05bf f075 26bf
00000270: fb02 38be 318a 2ebe bc7f 20bf c4a3 22bf
00000280: a993 75be bab3 e4be 2a22 92be 141a 29bf
00000290: b841 86be 47e2 1dbf 3e34 12be af2c e3be
000002a0: 1ff4 70be 1700 bcbe f5d9 17bf 8223 dcbe
000002b0: 2592 e9be eff8 d3be 1400 03bf 18a1 01bf
000002c0: bc6e 823e fc15 d9be 4524 30bf 598f 2ebe
000002d0: 9c80 f2be a820 edbe a45f 06bf 2506 1abf
000002e0: d279 e83d 5528 33be af54 2dbf 0fb4 bdbe
000002f0: d0fd 01be 43ae 68be 7b23 05bf 2c91 0dbf
00000300: 4cf4 823e a953 84be 355f 06bf 1faa 9fbe
00000310: 8540 23be 0a12 0dbf f46c 02bf 92ad 16bf
00000320: 635d 293e cd76 ddbd cd64 bebe ff1e 2fbf
00000330: 64a5 1dbe c0d2 09bf b5f9 a6be b544 29bf
00000340: f0db 74be 2479 01bf 0113 b7be 035e d9be
00000350: bab4 19bf dc25 05bf 2f8c 21bf 5cc7 acbe
00000360: 583c 94be 9904 75be 8cd4 1abf 7b71 c7be
00000370: a3ea 1abf 9aa5 8abe 724e 9ebe 0917 0fbf
00000380: c0fb e4bd c434 0ebf 357d d4be 422e a0be
00000390: 1fec febe e068 3fbf 4238 d6be abdd 39bf
000003a0: dffd a2be 7b58 0dbe 0c6f 3bbf 9039 29bf
000003b0: 804b bdbe 773a 66be 2bbe 9dbe 69ff fbbe
000003c0: b147 ae3e 9c32 3ebe 88e6 43bf a406 11bf
000003d0: dbc1 1fbf 79d1 2dbf 2572 92be e870 c0be
000003e0: 6676 223e f48f eebe 8f00 3bbf 0c46 27be
000003f0: c5f1 5bbe 1e56 ebbe 0d4c dabe a0f8 26bf
-0.14212745 -0.6402963 -1.8951148 -0.013937143 0.83032334 -0.5345462 0.71844393 -0.9338529
-0.20913732 0.55954653 -0.7411754 0.24445571 0.4355798 0.4383035 0.45250553 -1.2955787
-0.36265302 0.4423835 -0.38121092 0.40251014 0.07827981 -0.6852611 -0.55005276 0.54134923
0.031250153 0.7920178 0.061822727 0.11670165 -0.6678733 0.55374473 0.662895 0.07306025
0.13189985 -0.121745 0.61588246 0.23658393 -0.06755746 0.2678582 0.612282 -1.5706564
0.2527232 0.0008040836 -0.0271283 0.5323683 0.6119234 0.28900054 -0.8306331 -0.8367324
-0.18671551 -0.32528773 0.33100396 0.32665354 -0.9841222 0.5244352 -0.99000347 0.55660015
-0.33524233 -0.2508618 -0.8700379 -0.59924835 -0.44290957 -0.6358374 -0.1299862 -0.5258073
0.23577239 -0.5077697 -0.3258894 -0.21953756 -0.5980452 -0.3260768 -0.07346031 -0.77056324
-0.00025123652 -0.4235816 -0.8225428 -0.14364113 -0.31115395 -0.21790676 -0.51065004 -0.54828066
0.090863824 -0.08099915 -0.53295356 -0.72842735 -0.29049808 -0.680246 -0.06563736 -0.54267895
-0.08484655 0.008371497 -0.86062485 -0.5132105 -0.33457407 -0.6395368 -0.34549448 -0.60035795
-0.012556054 -0.09492591 -0.7900463 -0.35296082 -0.60584426 -0.47517022 -0.6554135 -0.34449875
-0.20560116 -0.51960194 -0.33805433 -0.3722495 -0.41550276 -0.66955173 -0.4917035 -0.6243616
-0.09439739 -0.2898852 -0.8014178 -0.522348 -0.36958805 -0.598605 -0.49854505 -0.3203969
-0.07935404 -0.6527003 -0.7724505 -0.6313252 -0.3380483 -0.34266016 -0.39422894 -0.37702918
-0.07923409 -0.23093157 -0.6781673 -0.1300932 -0.4847928 -0.64192057 -0.15913974 -0.6187819
-0.3043906 -0.5787817 -0.70114636 -0.5760948 -0.10394841 -0.43770808 -0.3650656 -0.45698047
0.12820977 -0.34823334 -0.46333915 -0.22038507 -0.5509345 -0.4642939 -0.68530583 -0.7252473
0.2064833 -0.42375013 -0.51970625 -0.6502371 -0.17969887 -0.17044903 -0.6269491 -0.63531137
-0.23982109 -0.4466837 -0.2854169 -0.6605542 -0.26222014 -0.61673397 -0.14277741 -0.44370028
-0.23530625 -0.3671882 -0.5931695 -0.4299584 -0.45619312 -0.4140086 -0.51171994 -0.50636435
0.2547511 -0.42399585 -0.6880534 -0.1704687 -0.47363746 -0.46313977 -0.52489686 -0.60165626
0.113513604 -0.17495854 -0.6770734 -0.37051436 -0.12694478 -0.22722726 -0.52007264 -0.5529964
0.2557701 -0.25845078 -0.52489024 -0.3118448 -0.15942581 -0.5510565 -0.509475 -0.588586
0.1653953 -0.10813675 -0.3718628 -0.6840667 -0.15395123 -0.53837204 -0.32612386 -0.66120464
-0.23912024 -0.5057547 -0.35756686 -0.42454538 -0.6004139 -0.52010894 -0.6310453 -0.3374585
-0.2895229 -0.23927535 -0.6048057 -0.38953766 -0.6051428 -0.2707947 -0.30919224 -0.55894524
-0.1118083 -0.55549264 -0.41501775 -0.31285292 -0.4978952 -0.747694 -0.41839796 -0.72603863
-0.31834313 -0.13803284 -0.7321632 -0.6610346 -0.36971664 -0.2248324 -0.3080915 -0.492183
0.3403907 -0.18573993 -0.7652364 -0.5665076 -0.62405175 -0.67897755 -0.2860271 -0.3758614
0.15865478 -0.46594203 -0.7304773 -0.16335315 -0.21478947 -0.4596414 -0.42636147 -0.6522312

l3.bias f4 [54]
00000000: f630 053f 425e 58be 778e 403f 83e9 25be
00000010: 15ee 823d 4e9f 6f3e f6ea a63d f411 1dbc
00000020: 5a1a 933b 3958 4a3c 4319 3dbd 6506 eebd
00000030: 051e c3bd 1c88 a3be fd3d 0cbf 3e9d fbbd
00000040: ecad 68bc 05a2 c3be 5358 0ebf 7e43 0cbf
00000050: bfd0 c1be 3c75 6bbc d841 543d 9282 a5be
00000060: ee97 28bd 7436 8e3d 9032 afbe 8f23 f8bc
00000070: 54b3 63bc 79fd 11bf 6aec 023e 0ef0 ae3c
00000080: 3a04 bebe 4366 f0be 2fb8 ae39 c406 0dbf
00000090: 4f91 edbe fc14 f0bd 4e1c d9be 314c 1ebe
000000a0: 5c47 9abe 5267 bfbe 81ef c63d 46d1 07bf
000000b0: 67ae fbbe a1eb 13be 2739 03bf fcf6 79be
000000c0: 9593 0abf ca1d 2bbe 6d8b 9f3d f693 1cbe
000000d0: 1fba 48be 807c c8be
0.52027833 -0.21129707 0.75217384 -0.16202359 0.06393067 0.23400614 0.08150284 -0.0095868
0.0044892253 0.0123501355 -0.04616667 -0.116223134 -0.0952721 -0.3193978 -0.54782087 -0.12285851
-0.014201622 -0.3820955 -0.5560352 -0.54790485 -0.37854573 -0.014371213 0.051820606 -0.3232618
-0.041160516 0.0694398 -0.34218264 -0.030290393 -0.013897736 -0.57027394 0.12785497 0.021354701
-0.371126 -0.4695302 0.00033325094 -0.5508845 -0.46399924 -0.117227525 -0.42404407 -0.15458752
-0.30132568 -0.37383515 0.097136505 -0.530537 -0.49156496 -0.14445354 -0.5125908 -0.24410623
-0.5413144 -0.16710582 0.07790265 -0.15290818 -0.1960225 -0.39157486
